best_model.pth (torch, 22050 bytes, 45 tensors)

class_token f4 [1, 8]
0	0x3f14354e	0.57893836
1	0x3f0111db	0.5041787
2	0xbdebd5df	-0.11515402
3	0x3f489025	0.7834495
4	0x3f481c38	0.7816806
5	0x3f2123bf	0.6294517
6	0x3f0ab2a4	0.54178834
7	0x3e1fb274	0.15595418

linear_mapper.weight f4 [8, 16]
0	0x3dd58ebc	0.10427615
1	0xbd9f06c5	-0.07764963
2	0x3ed1b4a0	0.40958118
3	0x3d33ee5c	0.04392849
4	0xbd1d148d	-0.038349677
5	0xbd235489	-0.03987554
6	0x3d8cc5f4	0.06873694
7	0xbf135598	-0.5755248
8	0xbe1b384e	-0.15158197
9	0x3d23a897	0.0399557
10	0x3e2080c3	0.15674119
11	0xbec21067	-0.3790314
12	0x3e8dd34c	0.2770027
13	0x3d9ed3aa	0.077552155
14	0x3e934ada	0.28768045
15	0xbebb6895	-0.36603227
16	0xbe2f7431	-0.17134167
17	0xbe90e0ec	-0.28296602
18	0xbe98e4ea	-0.29862148
19	0xbec3bbcf	-0.38229224
20	0x3e8a5ba2	0.27023035
21	0xbe13653e	-0.1439409
22	0x3dd710e2	0.10501267
23	0x3e1b5bdb	0.15171759
24	0xbcbbd79e	-0.022929963
25	0xbe4c2468	-0.19935763
26	0x3e747b41	0.23875143
27	0x3e16c515	0.14723618
28	0x3e984078	0.29736686
29	0x3edfdf82	0.4372521
30	0x3eefc987	0.4683344
31	0x3f421e88	0.75827837
32	0x3e3216db	0.17391531
33	0xbe592195	-0.21204217
34	0x3e175ede	0.14782283
35	0xbe25384c	-0.16134757
36	0x3e14c557	0.14528404
37	0x3bd9fd5b	0.006652517
38	0x3d49ab75	0.04923578
39	0xbe020872	-0.12698534
40	0x3e3bbd1e	0.18333861
41	0x3c239257	0.009983621
42	0x3d763aba	0.0601146
43	0xbd82c4a7	-0.06385165
44	0x3dd9f9a1	0.10643316
45	0x3b41897a	0.0029531405
46	0xbd0f4908	-0.034981757
47	0xbc5a85fd	-0.013337609
48	0xbf14f33c	-0.58183646
49	0xbe849999	-0.25898436
50	0xbe49025a	-0.19629803
51	0x3e3b7a86	0.18308458
52	0xbeb58979	-0.35456446
53	0xbe95e6cd	-0.2927765
54	0x3e0e6c45	0.13908489
55	0x3e185de2	0.14879563
56	0xbf0ce363	-0.55034465
57	0x3d3dc39c	0.046329126
58	0x3e178ad1	0.14799048
59	0xbb89f1ec	-0.0042097475
60	0x3de5d08a	0.11221416
61	0x3ee5e4a8	0.44901013
62	0x3eb3538b	0.35024676
63	0x3e28e259	0.16492595
64	0x3e6b9ea8	0.23009741
65	0x3dc987d0	0.09840357
66	0x3e52ef22	0.20599034
67	0x3fd63eb4	1.6737885
68	0xbe98f725	-0.29876056
69	0xbe97892b	-0.29596838
70	0xbe29d1a6	-0.16583881
71	0x3f67f1d1	0.9060336
72	0xbec6f343	-0.3885747
73	0x3d74d218	0.059770674
74	0xbc28fb27	-0.010313786
75	0x3f0cc462	0.54987156
76	0xbec39b51	-0.38204435
77	0x3de12289	0.10992915
78	0xbd88bcab	-0.066766106
79	0x3e5ee9e0	0.21768904
80	0x3eaa10b8	0.3321588
81	0x3d01d29d	0.031694997
82	0x3f080f90	0.53148746
83	0xbf14dcfd	-0.581497
84	0x3f0ed3d9	0.55792004
85	0x3e159d26	0.14610729
86	0x3eae2875	0.3401524
87	0xbf0cd98a	-0.5501944
88	0x3ef6b472	0.48184544
89	0xbdaff1ec	-0.08591065
90	0x3e445e00	0.19176483
91	0xbedace1f	-0.42735383
92	0x3ec2af46	0.38024348
93	0xbdf3cde0	-0.11904502
94	0xbe16000d	-0.14648457
95	0xbe179bc9	-0.14805521
96	0xbeffaa6d	-0.49934712
97	0xbf1e3fba	-0.6181599
98	0xbf65e97b	-0.8980939
99	0xbec5231a	-0.38503343
100	0xbea67ded	-0.3251795
101	0x3e34e815	0.17666657
102	0xbeafe0fd	-0.3435134
103	0xbe2f9307	-0.1714593
104	0x3d274922	0.04084123
105	0x3e96854c	0.29398572
106	0xbebf19ea	-0.37324458
107	0xbdc8b15b	-0.09799453
108	0xbda9e58b	-0.08295735
109	0xbe1ae085	-0.1512471
110	0xbeed497e	-0.46345133
111	0x3bab6ce1	0.0052314852
112	0x3eefb90f	0.46820876
113	0x3e523051	0.20526244
114	0xbe56bfcd	-0.20971604
115	0x3e7cc596	0.24684748
116	0x3c18c3fd	0.009324071
117	0xbd6a89d3	-0.057260346
118	0xbf33c841	-0.7022744
119	0xbe38c84c	-0.18045157
120	0xbe13cbdc	-0.14433235
121	0xbe25c181	-0.16187097
122	0xbf239d46	-0.63911855
123	0x3e5aef10	0.21380258
124	0xbfb7a682	-1.4347689
125	0xbee546ec	-0.44780672
126	0xbf2deabc	-0.679363
127	0x3d81ea0f	0.06343471

linear_mapper.bias f4 [8]
0	0x3eed360c	0.46330297
1	0xbcac9503	-0.021067148
2	0xbec29ab9	-0.3800867
3	0x3da75249	0.081699915
4	0xbe27aca9	-0.16374458
5	0x3e187edf	0.14892147
6	0x3e6bbf5e	0.2302222
7	0xbe29f990	-0.16599107

blocks.0.norm1.weight f4 [8]
0	0x3f229bbc	0.6351888
1	0x3f40df81	0.7534104
2	0x3f5840cd	0.8447388
3	0x3f2d0876	0.67591035
4	0x3fa45892	1.283953
5	0x3f7d8fc3	0.9904749
6	0x3f8ec9ac	1.1155295
7	0x3f6a3503	0.9148714

blocks.0.norm1.bias f4 [8]
0	0x3c9003a9	0.01757987
1	0xbe52c2d0	-0.20582128
2	0x3ee5205d	0.44751254
3	0x3e6e0305	0.2324334
4	0x3e2f69e6	0.17130241
5	0x3d0d392a	0.034478344
6	0x3eddabf0	0.4329524
7	0xbee6f3ee	-0.4510798

blocks.0.mhsa.q_mappings.0.weight f4 [4, 4]
0	0xbea7de75	-0.3278691
1	0xbee01188	-0.43763375
2	0x3ea67b17	0.32515785
3	0xbeb777e0	-0.35833645
4	0xbe6a6555	-0.22890218
5	0xbeae95f3	-0.34098777
6	0xbf12d824	-0.57361054
7	0x3dad566f	0.084637515
8	0x3e83bf15	0.25731722
9	0x3f09ef7e	0.5388106
10	0x3f871879	1.0554343
11	0xbf0b4850	-0.54407215
12	0xbe89f7fe	-0.26947016
13	0x3e49fd1c	0.1972546
14	0x3e509792	0.2037032
15	0xbe5fcf29	-0.21856369

blocks.0.mhsa.q_mappings.0.bias f4 [4]
0	0xbf97c30a	-1.1856396
1	0x3f09990b	0.5374915
2	0xbf063ae4	-0.5243361
3	0xbe361ea1	-0.17785122

blocks.0.mhsa.q_mappings.1.weight f4 [4, 4]
0	0xbf55dc7a	-0.83539546
1	0xbf48b8f3	-0.7840721
2	0xbf4555b8	-0.7708392
3	0x3eb0b8a1	0.3451586
4	0xbefc26dd	-0.492484
5	0xbf1a0202	-0.60159314
6	0x3e70b136	0.235051
7	0xbe2d238c	-0.16908091
8	0x3e7864a8	0.24257147
9	0xbe35c5c2	-0.1775122
10	0x3f4b7010	0.7946787
11	0xbf160bf7	-0.58612007
12	0xbc805521	-0.015665593
13	0x3dc8aafc	0.09798238
14	0x3d02d6ef	0.031943258
15	0xbe3f2027	-0.18664609

blocks.0.mhsa.q_mappings.1.bias f4 [4]
0	0x3e68dea0	0.22741175
1	0xbf32edfd	-0.6989439
2	0x3ef48362	0.47756487
3	0xbdfb0bd7	-0.12258118

blocks.0.mhsa.k_mappings.0.weight f4 [4, 4]
0	0xbd48a759	-0.04898772
1	0xbf9a41dc	-1.2051349
2	0x3dbc368e	0.09190093
3	0xbecd00ce	-0.40039676
4	0xbe6a7ae0	-0.22898436
5	0x3f341934	0.70350957
6	0x3da08009	0.07836921
7	0x3d434d93	0.047681402
8	0x3e88960f	0.26676986
9	0xbfaeb322	-1.3648417
10	0x3da619df	0.08110403
11	0x3f624cab	0.88398236
12	0xbe5dece6	-0.21672401
13	0xbeb2ef18	-0.3494804
14	0x3e213a09	0.15744795
15	0x3eb158c8	0.34638047

blocks.0.mhsa.k_mappings.0.bias f4 [4]
0	0xbd986b29	-0.07442314
1	0xbedbcf48	-0.4293158
2	0x3ebeb2fa	0.37245923
3	0x3ddd6354	0.10809961

blocks.0.mhsa.k_mappings.1.weight f4 [4, 4]
0	0xbe310c3f	-0.17289828
1	0xbf930c91	-1.148821
2	0x3f2d0776	0.6758951
3	0xbf7509ff	-0.9571838
4	0xbe88e527	-0.2673733
5	0xbf72f876	-0.9491037
6	0x3f56e925	0.839495
7	0xbeb582ec	-0.35451448
8	0x3e70369c	0.23458332
9	0x3f28021d	0.65628225
10	0x3ec93bdb	0.3930348
11	0x3f2977e8	0.6619859
12	0x3bf7b1a1	0.007559017
13	0xbeb9e50c	-0.3630756
14	0x3e06eee5	0.13177069
15	0x3e5ee154	0.21765643

blocks.0.mhsa.k_mappings.1.bias f4 [4]
0	0xbe083d0e	-0.1330454
1	0x3e50f5d4	0.20406276
2	0x3dafa12b	0.08575662
3	0x3de51e9e	0.111874804

blocks.0.mhsa.v_mappings.0.weight f4 [4, 4]
0	0x3e283526	0.16426525
1	0x3d8d5a94	0.06902042
2	0x3edd5ee4	0.43236458
3	0xbb49b73f	-0.003077939
4	0x3ed5c362	0.41750628
5	0xbc658b75	-0.0140103
6	0x3e2c60f0	0.16833854
7	0x3e85e201	0.2614899
8	0x3f07b43b	0.53009385
9	0x3b89099e	0.0041820547
10	0xbdff157a	-0.12455268
11	0x3e99b2ee	0.30019325
12	0xbb08885a	-0.0020833225
13	0xbd2bb803	-0.041923534
14	0x3ed19525	0.409341
15	0xbcfa087f	-0.03052163

blocks.0.mhsa.v_mappings.0.bias f4 [4]
0	0xbefc7717	-0.49309608
1	0xbebd0887	-0.36920568
2	0xbec03815	-0.37542787
3	0xbe1bf106	-0.15228662

blocks.0.mhsa.v_mappings.1.weight f4 [4, 4]
0	0xbf2dfcbe	-0.6796378
1	0xbe50fdb5	-0.20409282
2	0xbec3a240	-0.38209724
3	0x3f151441	0.5823403
4	0xbf2b9652	-0.67026246
5	0xbee38c49	-0.44442967
6	0xbc8c70e4	-0.017143674
7	0xbc4628ef	-0.01209472
8	0x3ffccb08	1.974946
9	0x3f204a1c	0.6261308
10	0xbeff6e3f	-0.498888
11	0x3f1c01a9	0.60940033
12	0xbf85bc4f	-1.0448092
13	0x3f1c46ba	0.6104542
14	0x3eb6e140	0.35718727
15	0xbdf6a4aa	-0.12043126

blocks.0.mhsa.v_mappings.1.bias f4 [4]
0	0xbe976d82	-0.29575735
1	0xbf03837f	-0.5137252
2	0x3c9966f4	0.01872585
3	0xbb5a935a	-0.0033351989

blocks.0.norm2.weight f4 [8]
0	0x3fb1f02a	1.3901417
1	0x3fb33989	1.4001933
2	0x3fc9b2e6	1.575772
3	0x3f9d88ff	1.2307433
4	0x3f966ea9	1.1752521
5	0x3fa5cb63	1.2952694
6	0x3f1cbafe	0.6122283
7	0x3f3a18f7	0.72694343

blocks.0.norm2.bias f4 [8]
0	0x3e85afc2	0.26110655
1	0xbd7d3d26	-0.061825894
2	0x3df925fc	0.12165448
3	0x3ec224b2	0.3791862
4	0xbd13882f	-0.036018547
5	0xbd94cbdb	-0.07265445
6	0x3b3ed690	0.0029119588
7	0xbe190129	-0.14941849

blocks.0.mlp.0.weight f4 [32, 8]
0	0x3e8f41d4	0.2797991
1	0xbfbe8e03	-1.4887089
2	0x3e5cd715	0.21566422
3	0xbec860f3	-0.39136466
4	0x3f2a9b47	0.66643184
5	0xbeb84d36	-0.35996407
6	0x3b9acb38	0.0047239326
7	0x3ce862a3	0.028367346
8	0x3f4f1260	0.80887413
9	0xbf84c093	-1.0371269
10	0xbe07ca70	-0.13260818
11	0x3f7ab1b6	0.97927415
12	0x3e45e312	0.19324902
13	0x3e6321b6	0.22180828
14	0xbf1f2506	-0.6216587
15	0xbf471ad0	-0.7777529
16	0x3fc4089f	1.5315131
17	0xc00a9052	-2.1650586
18	0x3f054de8	0.52072
19	0xbe592872	-0.21206835
20	0xbf05e265	-0.52298576
21	0xbe4dcf75	-0.2009867
22	0x3e65688e	0.22403166
23	0x3e4b65f8	0.19863117
24	0x3d6285c7	0.05530336
25	0xbba83653	-0.005133429
26	0x3db301ae	0.08740555
27	0xbc1e13bd	-0.009648261
28	0xbd2eddb8	-0.042691916
29	0x3d8dbd12	0.06920828
30	0x3dba9bc4	0.09111741
31	0x3d663e87	0.056211974
32	0xbe5b817d	-0.21436115
33	0xbef5fc64	-0.4804412
34	0x3f5abb6d	0.8544224
35	0xbeab328d	-0.33437005
36	0xbe0c75c1	-0.13716795
37	0xbf49ad38	-0.78779936
38	0x3eda7fb9	0.4267557
39	0x3e60fe01	0.21971895
40	0x3f726310	0.9468241
41	0xbe36fea2	-0.17870572
42	0x3f350c4a	0.70721877
43	0xbd7d658f	-0.061864432
44	0x3e53da96	0.20688853
45	0xbec7e57a	-0.39042264
46	0xbf646e4e	-0.8923081
47	0xbdc943d9	-0.09827394
48	0x3f4ef618	0.8084426
49	0xbf5c779e	-0.8612002
50	0x3e935f99	0.28783873
51	0x3ec8ddcf	0.39231727
52	0xbf2652f6	-0.6497034
53	0xbf5e8b69	-0.86931473
54	0x3e220bda	0.15824834
55	0x3e896483	0.26834497
56	0x3f01ca5d	0.50699407
57	0xbee78429	-0.45218018
58	0xbc81bdef	-0.015837638
59	0x3f28b186	0.6589588
60	0x3c9e5002	0.01932526
61	0x3f1abb7c	0.6044233
62	0xbf8ef8d5	-1.1169688
63	0xbed6308a	-0.41833907
64	0x3dcb322f	0.09921681
65	0x3f2998f7	0.6624903
66	0xbe0c4929	-0.13699783
67	0xbf0916ea	-0.5355059
68	0x3f0bd6b1	0.5462447
69	0xbebb9963	-0.36640462
70	0x3e5b0413	0.21388273
71	0xbe389639	-0.18026055
72	0x3f8c1cdd	1.0946308
73	0xbe87f4dc	-0.26554
74	0x3ea38795	0.31939378
75	0x3f009817	0.5023207
76	0x3ed611f0	0.4181056
77	0x3eb21b94	0.34786665
78	0xbe490b63	-0.1963325
79	0xbf17a1c3	-0.59231204
80	0xbf1cf78c	-0.61315227
81	0xbf44fab3	-0.76945037
82	0x3f33fc31	0.7030669
83	0xbf61069b	-0.87900704
84	0x3f4462c0	0.7671318
85	0x3e2312fc	0.1592521
86	0xbe2bf2a8	-0.16791785
87	0x3edbab71	0.42904237
88	0x3da5f3d0	0.08103144
89	0x3db62645	0.08894018
90	0xbe834fcd	-0.2564682
91	0x3ebefd1a	0.37302476
92	0x3d705f2f	0.058684524
93	0xbe99d32a	-0.30043918
94	0xbef45c69	-0.47726753
95	0xbf86385b	-1.0485948
96	0xbddcf6e7	-0.107892804
97	0x3c2f972e	0.010717196
98	0x3f418e91	0.75608164
99	0x3e76e6b1	0.2411144
100	0xbf3281ec	-0.69729495
101	0xbf167983	-0.5877916
102	0x3eb83945	0.35981193
103	0xbe083db7	-0.13304792
104	0xbef09241	-0.46986583
105	0xbcb7d64f	-0.022441057
106	0x3f8949e6	1.0725677
107	0xbe556710	-0.20840096
108	0xbedc7b9f	-0.43063065
109	0xbeab16cb	-0.33415827
110	0xbed39712	-0.41326195
111	0xbddafce7	-0.106927685
112	0xbf231fc5	-0.6372035
113	0xbeb306b0	-0.3496604
114	0x3f20b21f	0.6277179
115	0x3f257263	0.64627665
116	0xbe6b1c3c	-0.2295999
117	0xbf617e4d	-0.88083345
118	0xbf67f229	-0.9060388
119	0xbdbfb894	-0.09361377
120	0x3d353f02	0.044249542
121	0xbf9164c4	-1.1358876
122	0xbd157775	-0.036490876
123	0xbeadc6d5	-0.3394076
124	0xbf1a0ffe	-0.6018065
125	0x3f238a71	0.6388312
126	0x3dbb899c	0.09157106
127	0x3e65cc75	0.22441275
128	0x3e280c8c	0.16411036
129	0x3ee6844f	0.45022818
130	0x3f5138d0	0.81727314
131	0x3f2baf4e	0.6706437
132	0xbf602404	-0.87554955
133	0xbe91446f	-0.28372523
134	0xbf173d31	-0.59077746
135	0x3d678f3b	0.05653308
136	0x3eef4f57	0.4674022
137	0x3d3116b6	0.04323455
138	0x3eb72039	0.3576677
139	0xbed3c89d	-0.41363993
140	0xbeab928a	-0.33510238
141	0xbfa2b6d9	-1.2712051
142	0xbec3c263	-0.38234243
143	0x3e95ce4b	0.29258952
144	0x3f92c14a	1.1465237
145	0x3e031667	0.12801515
146	0xbc4740aa	-0.012161413
147	0xbf117e40	-0.5683327
148	0xbe7c558e	-0.24642012
149	0xbdf325f0	-0.118724704
150	0x3eae8c67	0.34091493
151	0xbf35493f	-0.7081489
152	0x3f3fd472	0.7493354
153	0x3e8a394c	0.2699684
154	0x3f1a687c	0.6031568
155	0xbf025fb9	-0.5092731
156	0xbdcadc0f	-0.09905254
157	0xbeef8742	-0.4678288
158	0xbedfdba8	-0.43722272
159	0xbd8a0fc5	-0.06741289
160	0x3e00e487	0.12587176
161	0xbf4a79ae	-0.7909192
162	0x3ea3d78a	0.3200038
163	0x3f63cce2	0.889845
164	0x3f08ed5f	0.534872
165	0x3f08b6dd	0.5340403
166	0xbdd544e1	-0.10413528
167	0xbf5c9444	-0.86163735
168	0x3eed1a58	0.4630916
169	0x3f1cfb0e	0.6132058
170	0xbde67620	-0.11252999
171	0xbf097d80	-0.5370712
172	0xbf3a8694	-0.728616
173	0xbc3e1eed	-0.011604053
174	0x3d6ba2e5	0.057528395
175	0xbec38b2d	-0.3819212
176	0xbf244a5b	-0.6417596
177	0xbf1deb8c	-0.6168754
178	0x3f83bae1	1.0291406
179	0xbee7af14	-0.45250762
180	0x3f294d35	0.66133434
181	0xbdafc394	-0.085822254
182	0x3e99d665	0.30046383
183	0xbe9dc708	-0.3081591
184	0x3dc71f65	0.09722785
185	0xbec057e9	-0.3756707
186	0x3ecd8cc2	0.40146452
187	0x3f1cb8c3	0.61219424
188	0xbe354a5d	-0.17704149
189	0x3edaab86	0.42708987
190	0xbf1ddf75	-0.61669093
191	0xbf494d95	-0.78634006
192	0xbf0a09bf	-0.5392112
193	0xbdd70626	-0.104992196
194	0xbe3f7e6c	-0.1870057
195	0xbe691183	-0.22760586
196	0x3f658d32	0.8966857
197	0x3f81b5c3	1.0133594
198	0xbeeb0b67	-0.45907137
199	0xbe57f02e	-0.21087715
200	0xbf5d816c	-0.8652561
201	0xbecd09d2	-0.40046555
202	0x3ff506a9	1.9142658
203	0x3ed2d32f	0.41176745
204	0x3ecedfd1	0.40405133
205	0x3f18f056	0.59741724
206	0xbedecb5d	-0.4351453
207	0xbdda2e12	-0.106533185
208	0xbd13051a	-0.035893537
209	0x3e954037	0.29150555
210	0x3f86226a	1.0479252
211	0xbf8f7165	-1.120648
212	0x3e075820	0.13217211
213	0xbf0a9542	-0.54134
214	0xbd2b040c	-0.041751906
215	0xbd8dfbab	-0.069327675
216	0x3d831736	0.064009115
217	0xbf50a5fa	-0.8150326
218	0x3f839280	1.0279083
219	0xbdcab905	-0.09898571
220	0x3e9fa5b7	0.31181118
221	0x3d9b105c	0.0757148
222	0xbeba9722	-0.3644343
223	0x3e9e3a62	0.30903918
224	0x3e22b451	0.15889098
225	0xbe2c3cb8	-0.16820037
226	0xbdeeb4bc	-0.11655566
227	0xbef09f56	-0.46996564
228	0xbebd0d26	-0.36924094
229	0xbdc094f6	-0.09403412
230	0xbef644a1	-0.48099235
231	0x3f5f4451	0.8721362
232	0x3fafe3bc	1.3741374
233	0x3ccf5b3e	0.025312062
234	0x3e14d6b8	0.14535034
235	0xbf480b09	-0.7814184
236	0x3f0960db	0.53663415
237	0xbd5855f2	-0.05281634
238	0xbdfb5579	-0.12272162
239	0xbf4a22b8	-0.78959227
240	0x3e857674	0.26066935
241	0xbf9d26a5	-1.2277418
242	0x3f4ff91c	0.81239486
243	0x3d2fa16a	0.042878546
244	0xbf827dae	-1.0194604
245	0x3f6dd9a8	0.9291024
246	0xbf0e5bbd	-0.5560873
247	0xbe99fde0	-0.30076504
248	0xbd3df0e8	-0.046372324
249	0x3ebf795c	0.37397277
250	0x3f0f57d4	0.5599339
251	0xbcd0b0dc	-0.025474958
252	0xbc8580e1	-0.016296806
253	0x3e47e632	0.19521406
254	0xbfb60a0a	-1.4221814
255	0x3ef9d6a3	0.48796567

blocks.0.mlp.0.bias f4 [32]
0	0xbed9f084	-0.4256631
1	0xbf33cd54	-0.7023518
2	0xbf81a7f1	-1.0129377
3	0xbd31d8e8	-0.04341975
4	0xbf11c860	-0.56946373
5	0xbf1b920b	-0.6076972
6	0xbdcb1c20	-0.09917474
7	0xbf001007	-0.50024456
8	0xbecc923b	-0.39955315
9	0xbe3d1674	-0.18465596
10	0xbf8dd04d	-1.1079193
11	0xbedabcc4	-0.42722142
12	0xbe630599	-0.22170104
13	0xbf3dd2c0	-0.74149704
14	0xbede9b07	-0.4347765
15	0x3dda1f87	0.106505446
16	0xbe6b3d5c	-0.22972625
17	0xbf19d0ac	-0.60084033
18	0xbf0522b9	-0.5200611
19	0x3d8f1473	0.06986322
20	0x3eb65abf	0.3561611
21	0xbf206000	-0.62646484
22	0xbcab38d0	-0.020901114
23	0x3e9e306f	0.30896327
24	0xbf440da9	-0.76583344
25	0xbedd2304	-0.43190777
26	0x3f014999	0.50502926
27	0xbdcddf57	-0.10052364
28	0xbf5c4f9c	-0.86058974
29	0xbf914a32	-1.1350768
30	0xbe774f93	-0.24151449
31	0xbee2b8d5	-0.4428164

blocks.0.mlp.2.weight f4 [8, 32]
0	0x3f89a97c	1.0754848
1	0xbf0a1933	-0.539447
2	0x3fb7fb98	1.4373655
3	0x3d8e4645	0.069469966
4	0xbe93c030	-0.28857565
5	0x3ed45b10	0.41475725
6	0x3f9c57c5	1.2214285
7	0xbf1b0c69	-0.6056581
8	0xbf31cd30	-0.69453716
9	0xbf69638e	-0.91167533
10	0x3f2603f3	0.64849776
11	0xbf0dd587	-0.5540394
12	0x3e32aadb	0.17447989
13	0x3bec7a5a	0.007216734
14	0x3dcedb52	0.10100426
15	0xbf298c34	-0.6622956
16	0x3f0231fa	0.5085751
17	0x3d999675	0.074994005
18	0xbf301f3c	-0.6879766
19	0x3d8ee317	0.06976908
20	0xbec3d84b	-0.38250956
21	0xbea69de0	-0.32542324
22	0xbea634ce	-0.32462162
23	0x3e0cf1a1	0.13764049
24	0x3e21b450	0.1579144
25	0x3e6c31bc	0.23065847
26	0xbf0235d2	-0.50863373
27	0xbe820613	-0.2539526
28	0xbdd04b0f	-0.10170566
29	0xbf07525e	-0.5286006
30	0xbfbadd91	-1.4598867
31	0x3f522713	0.8209087
32	0x3c8d3efd	0.01724195
33	0x3e679116	0.2261394
34	0x3e893abd	0.26802626
35	0x3e0b4296	0.1359962
36	0x3eaeb99b	0.3412598
37	0x3e1dda7e	0.1541538
38	0x3f15c4cc	0.58503413
39	0xbe9d9188	-0.30775094
40	0xbeaad81e	-0.3336801
41	0xbf02055c	-0.5078943
42	0x3ef556a1	0.47917655
43	0x3e1b6444	0.15174967
44	0x3e903a2c	0.28169382
45	0xbc9dea30	-0.019276708
46	0xbfa342aa	-1.2754719
47	0x3e0fa8cd	0.14029236
48	0x3eb49dcd	0.35276642
49	0x3f0c6058	0.5483451
50	0xbe7af0bc	-0.24505895
51	0xbe1e7b49	-0.15476717
52	0x3e0619e0	0.13095808
53	0xbf3d5491	-0.73957163
54	0x3e7e03e6	0.24806175
55	0xbeded113	-0.43518886
56	0x3ead57a9	0.33855942
57	0xbfbb5529	-1.4635364
58	0x3eacdb7a	0.33761197
59	0x3e48b728	0.19601119
60	0x3cf819a5	0.030285666
61	0x3f804c87	1.0023354
62	0xbe1f7236	-0.15570912
63	0xbe81ebb1	-0.2537513
64	0xbe3d3d96	-0.18480524
65	0x3c83c1ea	0.016083676
66	0xbe5951c4	-0.21222597
67	0x3db45fbe	0.08807324
68	0x3e906eca	0.28209525
69	0xbf0e2ff9	-0.5554195
70	0x3d1ec2ed	0.038760114
71	0x3cb231c6	0.02175225
72	0xbd22298a	-0.039590396
73	0xbf26db1b	-0.6517808
74	0xbda6a4d6	-0.08136909
75	0x3e50e9cb	0.20401685
76	0x3e0305bd	0.12795158
77	0xbeca56ef	-0.3951945
78	0x3f3c5b43	0.73576754
79	0xbe202bf1	-0.15641762
80	0xbe9ff1f1	-0.31239274
81	0x3f337e0e	0.7011422
82	0x3e8a161c	0.26969993
83	0x3f2a079c	0.6641786
84	0x3f2b48f6	0.66908205
85	0x3f01a85e	0.5064753
86	0x3eb360ef	0.35034892
87	0x3def2af7	0.11678117
88	0x3f740a64	0.95328355
89	0x3f6af3c0	0.91778183
90	0x3f3764f3	0.7163841
91	0x3e92a61d	0.2864236
92	0x3f571e43	0.8403055
93	0xbf6df678	-0.92954206
94	0x3e5fc8ab	0.21853893
95	0x3e6f031f	0.23341034
96	0xbf626f2f	-0.884509
97	0xbe1a6b7e	-0.15080068
98	0xbd9aa634	-0.07551232
99	0x3e03a38d	0.12855358
100	0x3e30bbb8	0.17259109
101	0xbe4e0738	-0.20119941
102	0xbe1ed07a	-0.15509215
103	0x3e2856de	0.16439387
104	0xbec86a0f	-0.39143416
105	0xbe058865	-0.13040312
106	0x3ef19a0a	0.47187835
107	0x3d67df3f	0.05660939
108	0x3e47517e	0.1946468
109	0x3f2c5ba7	0.6732735
110	0x3ef929c1	0.48664668
111	0x3e8e2083	0.2775918
112	0xbdb9f644	-0.090801746
113	0xbe3daa37	-0.18521963
114	0xbe92a0f7	-0.2863843
115	0xbf1ff41a	-0.62481844
116	0x3ea846c2	0.32866484
117	0xbe6e9cb2	-0.23301962
118	0x3f354d11	0.7082072
119	0x3f3313e3	0.6995222
120	0xbef88ab1	-0.48543313
121	0x3f13aee7	0.57688755
122	0x3f233bd9	0.63763195
123	0xbd910729	-0.07081444
124	0x3dd84ab0	0.105611205
125	0xbf204da9	-0.626185
126	0x3edb1990	0.4279294
127	0x3cd4000b	0.025878927
128	0xbf44b61b	-0.7684037
129	0x3f2b8c24	0.6701071
130	0xbe8b5729	-0.27214935
131	0xbc48a9ce	-0.012247516
132	0x3e9ede71	0.31029084
133	0x3f0028f0	0.50062466
134	0x3ca9fa18	0.020749137
135	0x3eed80ac	0.4638723
136	0x3c412c46	0.011790341
137	0x3ee06052	0.43823487
138	0xbfb51af1	-1.4148847
139	0xbe900d23	-0.28135023
140	0xbdd5b0cb	-0.10434111
141	0x3f11a8b7	0.56898063
142	0xbea0c553	-0.31400546
143	0x3f1fbf61	0.62401396
144	0xbe95af2b	-0.29235205
145	0x3e5ca1c9	0.21546091
146	0x3da71939	0.08159108
147	0x3f054fa4	0.52074647
148	0xbea891cd	-0.32923737
149	0x3e4f3aac	0.20237225
150	0xbed06ea0	-0.407094
151	0xbe061655	-0.13094456
152	0xbe8e0929	-0.27741364
153	0x3e62d9f5	0.22153457
154	0x3e3a42dd	0.18189569
155	0xbe1d7245	-0.15375622
156	0x3e7c1559	0.24617518
157	0x3f8d7c14	1.1053491
158	0x3f6d72fc	0.9275358
159	0x3e949640	0.29020882
160	0x3e245555	0.16048177
161	0xbf2e32de	-0.6804637
162	0xbfa6966b	-1.3014654
163	0x3d0aa9da	0.03385339
164	0xbe6edf42	-0.23327354
165	0xbdf405c5	-0.11915163
166	0x3d651578	0.055928677
167	0x3d7dc2a2	0.061953194
168	0x3ea64518	0.3247459
169	0x3d67768d	0.056509543
170	0xbf094db9	-0.5363422
171	0x3e1415e9	0.14461483
172	0x3dbebba3	0.093131326
173	0xbc6b5c0c	-0.014365207
174	0xbe15b079	-0.146181
175	0xbf12b32a	-0.5730463
176	0xbf41bbf4	-0.7567742
177	0xbf2e311f	-0.680437
178	0x3ed3692a	0.4129117
179	0xbc9849ea	-0.018589932
180	0xbf2beb3e	-0.67155826
181	0x3ef6a9dd	0.4817647
182	0x3bc15971	0.005900555
183	0xbeffef7d	-0.49987403
184	0x3eb13693	0.3461195
185	0xbec9a4b4	-0.3938347
186	0xbe2d89f4	-0.16947156
187	0xbec0dd18	-0.3766868
188	0xbed0951c	-0.4073876
189	0x3e41eb78	0.1893748
190	0x3dde7075	0.10861293
191	0xbd06a180	-0.032868862
192	0x3dfa1807	0.12211614
193	0x3efd8c8f	0.495213
194	0xbf191acf	-0.5980653
195	0x3d2e14b4	0.042500213
196	0xbf68e504	-0.9097445
197	0xbe7aadfc	-0.24480432
198	0xbed92c43	-0.42416582
199	0x3dd01452	0.10160126
200	0x3e773d5a	0.24144498
201	0x3e18902f	0.14898752
202	0x3f902d18	1.1263762
203	0x3dfb0b40	0.12258005
204	0xbf923253	-1.1421608
205	0xbebe7966	-0.37201995
206	0xbe1e06f9	-0.15432347
207	0xbeb069dc	-0.34455764
208	0xbd4d0e15	-0.050062258
209	0xbeadd240	-0.3394947
210	0xbe71df8c	-0.23620433
211	0xbec4cfa0	-0.38439655
212	0xbeb30167	-0.34962007
213	0xbdffc7a8	-0.12489253
214	0x3eaf6301	0.3425522
215	0x3dd724eb	0.105050884
216	0xbe145176	-0.144842
217	0x3fafff1d	1.3749729
218	0x3d85c3b4	0.06531468
219	0x3f1d226f	0.61380666
220	0xbddf1273	-0.10892191
221	0xbd021fa8	-0.03176847
222	0x3eddf778	0.43352866
223	0xbee6560d	-0.44987527
224	0xbf2b0744	-0.6680796
225	0xbdab1e81	-0.083554275
226	0x3ed0e1f8	0.407974
227	0x3deeb38a	0.11655338
228	0xbe61527b	-0.2200412
229	0x3b96a009	0.0045967144
230	0xbf376126	-0.7163261
231	0x3ec59ab2	0.38594586
232	0xbef1a7f8	-0.47198462
233	0x3f283003	0.6569826
234	0xbf009981	-0.5023423
235	0x3f28ffaf	0.6601514
236	0x3eb874f0	0.36026716
237	0xbea44206	-0.32081622
238	0x3cc3339e	0.023828324
239	0x3f5bc3cb	0.8584563
240	0x3eee6b9b	0.4656647
241	0x3c59976c	0.013280731
242	0xbe2038a5	-0.15646608
243	0xbeaca9ed	-0.33723393
244	0x3f0f48b3	0.55970305
245	0xbeef1033	-0.46692047
246	0xbf6472b1	-0.89237505
247	0x3e99ecfb	0.30063614
248	0xbf22550e	-0.63411033
249	0xbf0ccea1	-0.5500279
250	0xbf8a6689	-1.0812541
251	0x3e4a9cd2	0.19786385
252	0x3ed0b185	0.40760437
253	0xbef1c99d	-0.4722413
254	0x3e80e33c	0.25173366
255	0xbecac7ec	-0.39605653

blocks.0.mlp.2.bias f4 [8]
0	0xbe1cc691	-0.15310122
1	0xbed44f12	-0.41466576
2	0x3cb5cb40	0.022191644
3	0xbe6e04b8	-0.23243988
4	0x3be90a40	0.0071118176
5	0x3e3b0c53	0.1826642
6	0x3db87112	0.090059415
7	0x3f03cd6f	0.5148534

blocks.1.norm1.weight f4 [8]
0	0x3fa94b65	1.3226134
1	0x3fe2484f	1.7678317
2	0x3f94045f	1.1563834
3	0x3fb2f25f	1.3980216
4	0x3f8a1875	1.0788714
5	0x3fba1675	1.4538103
6	0x3f9c9aa8	1.2234697
7	0x3f78a3ab	0.9712474

blocks.1.norm1.bias f4 [8]
0	0x3f8799ba	1.0593789
1	0xbe26d26e	-0.1629121
2	0xbe58019b	-0.21094362
3	0xbe3a5dc6	-0.18199834
4	0xbe218181	-0.15772058
5	0xbf3bda8d	-0.7338036
6	0x3e9e5cd3	0.30930194
7	0x3ef4cc51	0.4781213

blocks.1.mhsa.q_mappings.0.weight f4 [4, 4]
0	0xbed9649f	-0.4245958
1	0x3f015485	0.5051959
2	0xbd071672	-0.03298039
3	0xbea710a7	-0.32629892
4	0x3f16ddf3	0.5893242
5	0x3e79ef2d	0.24407645
6	0x3d42d3ef	0.047565397
7	0x3c165257	0.009174905
8	0x3e1b5744	0.15170008
9	0x3ef770fa	0.48328382
10	0x3e750861	0.23928978
11	0xbe5298ba	-0.20566073
12	0xbe846a90	-0.2586255
13	0x3d13eeb6	0.036116324
14	0x3ce05f8f	0.027389316
15	0xbe40ce4b	-0.18828695

blocks.1.mhsa.q_mappings.0.bias f4 [4]
0	0x3e42c4c0	0.19020367
1	0x3f273ae8	0.6532426
2	0xbf614e86	-0.8801044
3	0x3ecd5e7a	0.40111142

blocks.1.mhsa.q_mappings.1.weight f4 [4, 4]
0	0x3e14697d	0.14493366
1	0xbd597893	-0.053093504
2	0xbe696f66	-0.22796401
3	0xbe4bba2e	-0.1989524
4	0x3ee1207b	0.43970093
5	0x3f1324fb	0.574783
6	0xbf34af6e	-0.70580184
7	0xbe759cdc	-0.23985618
8	0xbdea10d7	-0.11428993
9	0xbdc5978e	-0.096480474
10	0xbe077edc	-0.13231987
11	0xbd03fe20	-0.032224774
12	0xbeadfb33	-0.33980712
13	0xbecbd60e	-0.39811748
14	0x3eb13a05	0.34614578
15	0xbdfacb93	-0.1224586

blocks.1.mhsa.q_mappings.1.bias f4 [4]
0	0xbf498a82	-0.7872697
1	0xbe2dd037	-0.16973959
2	0x3e25588b	0.16147058
3	0xbf2fe52e	-0.68709075

blocks.1.mhsa.k_mappings.0.weight f4 [4, 4]
0	0xbe9cb5c5	-0.3060743
1	0xbe147ada	-0.14499989
2	0x3cd4eb82	0.025991205
3	0xbdf7c698	-0.120984256
4	0xbf3ced7c	-0.7379987
5	0xbd3d1e28	-0.046171337
6	0x3eab977b	0.33514008
7	0xbe5acda1	-0.21367504
8	0x3f9d5934	1.2292848
9	0x3e2aa603	0.16664891
10	0xbd9df13c	-0.077120274
11	0xbcd5b578	-0.026087508
12	0xbf4bf637	-0.7967257
13	0xbe5d587b	-0.21615784
14	0xbe090806	-0.13381967
15	0xbdc8f4ab	-0.09812292

blocks.1.mhsa.k_mappings.0.bias f4 [4]
0	0xbeacd2d4	-0.337546
1	0x3ef53013	0.4788824
2	0xbe2e2926	-0.17007884
3	0x3f2071c8	0.62673616

blocks.1.mhsa.k_mappings.1.weight f4 [4, 4]
0	0x3e9ad627	0.3024151
1	0xbf887892	-1.0661795
2	0x3e5894ce	0.21150514
3	0x3f10d4cc	0.565747
4	0xbe8faaf2	-0.28060108
5	0xbf433b07	-0.76261944
6	0xbeb902cb	-0.36134943
7	0x3e2a8fa7	0.16656362
8	0xbb319007	-0.0027093904
9	0xbca45b75	-0.020063141
10	0xbc5384d7	-0.012910089
11	0x3c36ebe6	0.011164641
12	0xbc6e3b49	-0.014540502
13	0x3ce4506a	0.027870376
14	0xbdaa796f	-0.08323943
15	0x3e078d0e	0.13237402

blocks.1.mhsa.k_mappings.1.bias f4 [4]
0	0x3df84161	0.12121845
1	0x3e7b6025	0.24548395
2	0x3e0ca33e	0.13734147
3	0x3cdeb147	0.027184142

blocks.1.mhsa.v_mappings.0.weight f4 [4, 4]
0	0x3e8e9d35	0.27854314
1	0xbfa7ca30	-1.3108578
2	0xbf8a85ea	-1.0822117
3	0xbf6b66df	-0.91953844
4	0xbee8e510	-0.4548726
5	0x3dc13679	0.09434218
6	0x3f8a0e5c	1.0785632
7	0x3fde2baf	1.7357081
8	0xbe0c4524	-0.1369825
9	0xbebbbe76	-0.36668748
10	0x3fc62548	1.5480127
11	0xbffcdcdf	-1.9754905
12	0x3d39deec	0.04537861
13	0x3ff732cd	1.9312378
14	0xbf5dffc9	-0.8671842
15	0xbf0aa113	-0.5415203

blocks.1.mhsa.v_mappings.0.bias f4 [4]
0	0x3f02fef3	0.5117027
1	0x3dc40fd1	0.09573329
2	0x3ed58918	0.41706157
3	0xbe7a0fed	-0.24420138

blocks.1.mhsa.v_mappings.1.weight f4 [4, 4]
0	0x3c597947	0.013273544
1	0xbfc803a5	-1.5626112
2	0xbea05542	-0.31315047
3	0x3f8a0984	1.0784154
4	0x3f4b7b91	0.7948542
5	0x3f2ce8cd	0.67542726
6	0xbff4d015	-1.9126002
7	0x3eb41a98	0.3517654
8	0xbe4d3b3f	-0.20042132
9	0x3fd74266	1.6817138
10	0x3f03c14f	0.5146684
11	0x3e72df61	0.23718025
12	0xbfdf156c	-1.7428412
13	0xbe69a216	-0.22815737
14	0xbebe4dac	-0.37168634
15	0xbf8da626	-1.106633

blocks.1.mhsa.v_mappings.1.bias f4 [4]
0	0x3f06b616	0.5262159
1	0x3d32cf74	0.043654874
2	0xbf4a9622	-0.79135334
3	0x3db9940b	0.0906144

blocks.1.norm2.weight f4 [8]
0	0x3ffcac6f	1.9740123
1	0x3fdaab9e	1.7083623
2	0x3ff17c85	1.8866125
3	0x400dc4f5	2.2151463
4	0x3fbac983	1.4592746
5	0x3fc737e4	1.5563931
6	0x3fa90d1e	1.3207128
7	0x3fdaf330	1.7105465

blocks.1.norm2.bias f4 [8]
0	0x3db4c4ea	0.08826621
1	0xbebbbf99	-0.36669615
2	0x3ea93699	0.33049467
3	0x3e026196	0.12732539
4	0x3ea10c42	0.31454664
5	0x3bdd9d6f	0.0067631523
6	0xbeb19e0b	-0.3469089
7	0xbeae57c3	-0.34051332

blocks.1.mlp.0.weight f4 [32, 8]
0	0x3f82794f	1.019327
1	0xbf5cb514	-0.86213803
2	0xbf6d9359	-0.9280296
3	0x3f39cfde	0.72582805
4	0x3f27779a	0.6541687
5	0x3ee004ec	0.43753755
6	0xbf91dc43	-1.1395344
7	0x3e321135	0.17389376
8	0xbf3bb766	-0.7332672
9	0xbd5714e1	-0.052510146
10	0x3d08ea5c	0.033426628
11	0x3fc2c1b7	1.5215367
12	0xbe92ee42	-0.286974
13	0x3eeddf35	0.46459356
14	0x3e4a4d0b	0.19755952
15	0x3cb7e93d	0.022450084
16	0xbeafcc8b	-0.3433574
17	0x3e31518a	0.17316261
18	0x3f0ad8c4	0.5423701
19	0xbef0307f	-0.46912
20	0x3fffdcdc	1.9989276
21	0xbe8e9df4	-0.27854884
22	0xbf293152	-0.6609088
23	0xbf7827c2	-0.96935666
24	0x3e0dee3e	0.13860413
25	0x3f8f203d	1.1181713
26	0xbf952434	-1.1651673
27	0xbf4dd466	-0.8040222
28	0x3f2d5cc5	0.6771968
29	0x3ec85698	0.39128566
30	0xbf073fe2	-0.5283185
31	0x3e787117	0.2426189
32	0xbfc930a8	-1.5717974
33	0x3ea755b2	0.32682568
34	0x3ed29673	0.4113041
35	0x3e97adf9	0.29624918
36	0x3c8383b1	0.016054006
37	0x3f82dafa	1.0223076
38	0xbf996dce	-1.1986635
39	0x3f80cbc0	1.006218
40	0x3e0605f3	0.13088207
41	0x3f62e6bf	0.8863334
42	0xbf9c59d1	-1.221491
43	0xbf9e5c36	-1.237189
44	0x3f03df77	0.51512855
45	0x3f331767	0.69957584
46	0xbe31833d	-0.1733522
47	0x3e969849	0.2941306
48	0xbfc75029	-1.5571338
49	0xbe3e23f2	-0.185684
50	0x402eb85c	2.7300024
51	0xbedc4064	-0.43017876
52	0xbe677aff	-0.22605513
53	0x3f2e2fbd	0.6804159
54	0x3ca6e38f	0.02037218
55	0x3dd03133	0.10165634
56	0x3ec128ba	0.37726384
57	0xbda0ab97	-0.07845228
58	0x3e37651e	0.17909667
59	0xbf817530	-1.0113888
60	0xbf125f38	-0.5717654
61	0xbf55142d	-0.8323391
62	0xbd9dbf4f	-0.07702505
63	0x3f9320ed	1.1494423
64	0xbd8098f2	-0.06279172
65	0xbd17b183	-0.037034523
66	0xbb3db29e	-0.0028945575
67	0x3f727ab8	0.94718504
68	0x3da719b7	0.081592016
69	0xbf183be0	-0.5946636
70	0x3ec73e2f	0.3891463
71	0x3e4bb225	0.19892175
72	0x3fd27cd2	1.6444342
73	0xbfbe27f7	-1.4855946
74	0xbe9fb22f	-0.3119063
75	0x3e01b9be	0.12668511
76	0xbf4246cd	-0.75889283
77	0x3e8ffb25	0.28121296
78	0x3ed97816	0.4247443
79	0x3dffa927	0.12483435
80	0x3f95c957	1.1702069
81	0xbf217177	-0.6306376
82	0xbe9db6f1	-0.30803636
83	0x3f825926	1.0183456
84	0xbf255670	-0.6458502
85	0xbf1782e1	-0.5918408
86	0x3f494b7f	0.7863082
87	0xbe113c1a	-0.14183083
88	0xbf6e386e	-0.93054855
89	0xbe06d897	-0.1316856
90	0xbe9cd7b7	-0.30633327
91	0x3f015192	0.5051509
92	0x3f8e21ad	1.1104027
93	0xbe9b6b4f	-0.30355307
94	0x3f0aa8b8	0.54163694
95	0xbf80d06d	-1.0063607
96	0x3d98933c	0.07449958
97	0x3f288b90	0.65837955
98	0xbefb7530	-0.49112844
99	0xbfa68bfe	-1.3011472
100	0x3e788b24	0.24271828
101	0x3e366d18	0.17815053
102	0xbf2927ea	-0.6607653
103	0x3efbd295	0.491841
104	0xbe0b3d04	-0.13597494
105	0x3e85d0a2	0.26135737
106	0x3eec3a56	0.46138257
107	0x3dcae90e	0.09907733
108	0x3faefd2e	1.3671014
109	0xbe8305d3	-0.2559038
110	0xbd639163	-0.055558573
111	0xbfd2f52c	-1.648107
112	0x3ecc6bb2	0.39925915
113	0x3d937352	0.0719973
114	0x3fad40bf	1.3535384
115	0xbe87866d	-0.26469746
116	0x3f3a685a	0.7281548
117	0xbe2fa437	-0.17152487
118	0x3eab5f7c	0.33471286
119	0xbf6ec92a	-0.932757
120	0xbeecd771	-0.4625812
121	0xbf4fe4ae	-0.8120831
122	0xbe00d0ee	-0.125797
123	0xbe74173a	-0.23836985
124	0x3f8d8f9d	1.1059452
125	0x3f19e514	0.6011517
126	0xbf760383	-0.9609911
127	0xbf448025	-0.76758033
128	0x3f9192a5	1.1372877
129	0xbf0df748	-0.55455446
130	0x3e61d68c	0.220545
131	0x3f296b7e	0.66179645
132	0x3f2aeecb	0.6677062
133	0xbf528111	-0.8222819
134	0xbf533ed0	-0.8251772
135	0x3e5f469c	0.21804279
136	0x3eb150b6	0.3463189
137	0xbe84c95e	-0.2593488
138	0xbed41641	-0.41423228
139	0xbee1f4e8	-0.4413216
140	0x3f06f404	0.5271609
141	0x3e0cd082	0.13751414
142	0xbf4054fc	-0.75129676
143	0x3f8e88fb	1.1135553
144	0x3e53a3a3	0.20667891
145	0x3d8239a3	0.063586496
146	0xbdde163a	-0.10844083
147	0xbe32ecb8	-0.17473114
148	0x3f35e095	0.7104581
149	0xbf880754	-1.0627236
150	0xbf5df6ed	-0.86704904
151	0x3fa03e47	1.2519006
152	0x3e13522f	0.1438682
153	0x3ec86df8	0.391464
154	0x3e481a67	0.19541322
155	0xbfc449a8	-1.5334978
156	0xbf0f0d51	-0.55879694
157	0x3e8429bf	0.258131
158	0x3f491454	0.78546643
159	0xbcea7926	-0.028622221
160	0xbe4aa252	-0.19788483
161	0x3f0c131d	0.54716665
162	0xbf2441e1	-0.64163023
163	0xbe6f5f7c	-0.23376268
164	0x3da62b0b	0.081136785
165	0xbec59178	-0.38587546
166	0xbdc4b4a2	-0.096047655
167	0x3f8fa2d7	1.122157
168	0xbd56d4e9	-0.05244914
169	0x3f7dfddf	0.992155
170	0xbfa95b00	-1.3230896
171	0x3f8d0aca	1.1018918
172	0xbf06c03d	-0.5263708
173	0x3ee0a815	0.43878236
174	0x3e8ea111	0.2785726
175	0xbf2737c4	-0.65319467
176	0xbe9f8fd1	-0.3116441
177	0xbf6425c1	-0.8912011
178	0x3d82fd14	0.06395927
179	0xbe4c131a	-0.19929162
180	0xbe354154	-0.17700702
181	0x3fbbe303	1.4678653
182	0xbf4dd836	-0.80408037
183	0xbf0e8c8d	-0.55683213
184	0xbee8212f	-0.45337817
185	0x3f02bea5	0.5107215
186	0xbeee9eba	-0.46605474
187	0x3f89b4f1	1.0758344
188	0x3eca9010	0.39563036
189	0xbf4a088a	-0.7891928
190	0xbe0c0fb8	-0.13677871
191	0x3f59d83f	0.8509559
192	0x3f43ae6c	0.7643802
193	0xbeecf6ac	-0.46281946
194	0xbf182910	-0.59437656
195	0x3f4a7342	0.7908212
196	0x3b9e04fe	0.0048223725
197	0x3f851fc1	1.0400316
198	0xbedc2608	-0.42997766
199	0xbf012c1e	-0.5045794
200	0x3e6289ef	0.2212293
201	0xbf81a748	-1.0129175
202	0x3db36552	0.0875956
203	0x3f2ca32f	0.674365
204	0x3f979424	1.1842084
205	0xbf282103	-0.6567537
206	0xbe91b701	-0.28459933
207	0xbe93bd5e	-0.28855413
208	0xbeb51272	-0.35365635
209	0xbe883933	-0.2660614
210	0x3fa206f7	1.2658376
211	0xbf80a8c1	-1.00515
212	0x3f4c5995	0.7982419
213	0xbdc4f9dd	-0.0961797
214	0xbf464f20	-0.77464485
215	0x3f4d639c	0.80230117
216	0xbf22b5dd	-0.6355875
217	0xbe408a1c	-0.18802685
218	0xbec521b8	-0.38502288
219	0x3fc5111e	1.5395849
220	0x3e53b290	0.20673585
221	0x3ed0d191	0.40784886
222	0x3f0a2d18	0.5397506
223	0xbf82e4a9	-1.0226032
224	0xbf9db6b8	-1.2321386
225	0x3f875721	1.0573465
226	0xbcaf3aa8	-0.021390274
227	0x3dd7f718	0.10545176
228	0xbf1676d9	-0.587751
229	0x3f505a0f	0.8138742
230	0x3f06fdfb	0.52731293
231	0xbde1f553	-0.1103312
232	0xbe5a96bb	-0.21346562
233	0xbd36f497	-0.044666853
234	0x3d614c01	0.055004124
235	0x3f3ef03a	0.74585307
236	0xbf5e24d0	-0.8677492
237	0x3e80c392	0.25149208
238	0x3f6e03c0	0.9297447
239	0xbeda0094	-0.42578566
240	0x3ec3d1e9	0.38246086
241	0x3f72123a	0.9455906
242	0xbeea6f30	-0.45787954
243	0xbe3ed698	-0.18636549
244	0xbe920262	-0.28517443
245	0x3fbc0bc7	1.4691094
246	0x3e00cdd7	0.12578522
247	0xbfa0be15	-1.2558008
248	0xbf1de7f4	-0.6168206
249	0xbec54ad7	-0.3853366
250	0x3d9b97a6	0.07597284
251	0xbf3cca29	-0.7374597
252	0x3f60bb0c	0.8778541
253	0x3f7d69c7	0.9898953
254	0xbfabce0c	-1.3422256
255	0xbef2a35e	-0.47390264

blocks.1.mlp.0.bias f4 [32]
0	0x3f17947d	0.5921095
1	0xbd0fef1c	-0.03514014
2	0x3e5ce6d4	0.21572429
3	0xbe85473b	-0.26030907
4	0xbd9045fd	-0.07044599
5	0x3ea63cc9	0.3246825
6	0x3e7553f9	0.23957814
7	0x3d1e62ad	0.038668323
8	0xbdc83c1c	-0.0977709
9	0xbd9a7735	-0.07542268
10	0x3dda83d4	0.106696755
11	0x3e8a942b	0.27066168
12	0xbf0c61d5	-0.5483678
13	0x3e6490e1	0.22320892
14	0xbf0475b5	-0.51742107
15	0xbf030262	-0.5117551
16	0x3e564759	0.20925654
17	0x3e334635	0.1750725
18	0xbcb11fd8	-0.02162163
19	0xbe496289	-0.19666494
20	0x3e24b633	0.16085128
21	0x3dd388e2	0.10328843
22	0x3e861568	0.26188207
23	0x3e28a60f	0.16469596
24	0x3ee0dacd	0.43916932
25	0xbeef92f7	-0.46791813
26	0x3cb2ea49	0.021840231
27	0x3e4db545	0.2008868
28	0xbeb2df5c	-0.34936035
29	0x3e8685ff	0.26274106
30	0x3e7e0a2a	0.24808565
31	0xbeb8e141	-0.36109355

blocks.1.mlp.2.weight f4 [8, 32]
0	0x3ede3d4c	0.4340614
1	0xbf1db6bb	-0.6160695
2	0xbebe25ce	-0.37138218
3	0x3f0e2e17	0.5553908
4	0xbef5dbff	-0.48019406
5	0x3f2de156	0.6792196
6	0xbf8bc40d	-1.0919205
7	0x3d0a990f	0.033837374
8	0xbe83dda5	-0.2575504
9	0x3f307df2	0.6894218
10	0x3ee15326	0.4400875
11	0x3ecf0f90	0.4044156
12	0x3c997d42	0.018736485
13	0xbe4017a0	-0.18759012
14	0x3eca0abc	0.39461315
15	0x39c6662e	0.00037841633
16	0xbefd8d47	-0.4952185
17	0x3eb75f63	0.35814962
18	0xbdc0fd27	-0.09423285
19	0x3e8dcb96	0.27694386
20	0x3d32205e	0.0434879
21	0x3d6a33d3	0.05717833
22	0xbeeee957	-0.466624
23	0xbeff1b24	-0.49825394
24	0xbd9aa93e	-0.07551812
25	0x3f520424	0.8203757
26	0x3f077337	0.5291018
27	0xbe87602a	-0.26440555
28	0xbf84d567	-1.0377625
29	0xbef4599a	-0.4772461
30	0xbf4cc78c	-0.79991984
31	0xbe694a9a	-0.22782364
32	0x3ef97d8c	0.48728597
33	0xbd6f19bc	-0.05837415
34	0x3f92086d	1.1408821
35	0xbf42326d	-0.75858194
36	0x3f3946a6	0.72373426
37	0x3b1db7f9	0.0024065955
38	0x3f95fab9	1.171714
39	0xbecab8db	-0.3959416
40	0xbe62f2d6	-0.22162947
41	0xbf1642e8	-0.5869584
42	0xbf1c8565	-0.61141044
43	0x3e2c7975	0.16843207
44	0xbebf96b2	-0.3741966
45	0x3f247eee	0.6425618
46	0xbf3e6fad	-0.74389154
47	0x3f36f8ff	0.7147369
48	0x3d8c132e	0.06839596
49	0xbf258d2b	-0.6466853
50	0xbecf02ae	-0.40431732
51	0x3eb91853	0.3615137
52	0xbf46471d	-0.7745226
53	0xbf4f5522	-0.8098928
54	0x3f7fb8a2	0.998911
55	0xbf17c6aa	-0.5928751
56	0x3f284d96	0.65743387
57	0x3f792f4b	0.9733779
58	0x3c639ad2	0.0138918925
59	0x3ec7718a	0.3895381
60	0x3c92498b	0.017857334
61	0x3cbaccf3	0.022802806
62	0x3eed2bcb	0.46322474
63	0x3fbfa1b6	1.4971225
64	0xbf330154	-0.699239
65	0xbf614797	-0.8799986
66	0xbfd393e0	-1.6529503
67	0x3d781a28	0.06057182
68	0xbff90141	-1.9453508
69	0x3e898408	0.26858544
70	0x3f24f286	0.6443256
71	0x3f76def9	0.9643398
72	0x3e34b797	0.17648159
73	0x3ef7d16f	0.48401973
74	0xba42a2f6	-0.0007424796
75	0xbf049123	-0.5178396
76	0x3f1499e5	0.58047324
77	0xbfa1bb6e	-1.2635324
78	0xbe4691cf	-0.19391559
79	0xbf0fa4e5	-0.56110984
80	0xbf1ab6ff	-0.6043548
81	0xbefdc199	-0.49561766
82	0xbe6fa2d5	-0.23401959
83	0x3f9db458	1.2320662
84	0x3d7790d9	0.060440872
85	0xbf76a985	-0.96352416
86	0x3e990b9e	0.29891676
87	0xbf0e68e5	-0.55628806
88	0xbf4668ba	-0.7750355
89	0xbe074067	-0.13208161
90	0xbf8a9fcd	-1.0830017
91	0xbfc8430a	-1.5645459
92	0x3e674c23	0.22587638
93	0x39ff74e8	0.00048724492
94	0xbdea70ab	-0.11447271
95	0x3e80bbbd	0.25143233
96	0x3faecf18	1.365695
97	0xbedb78ca	-0.42865592
98	0xbf96980d	-1.1765152
99	0x3d8c907d	0.068634965
100	0x3db71bd6	0.08940856
101	0xbeb5309f	-0.35388657
102	0xbf812e6b	-1.0092291
103	0xbe5f86ba	-0.21828738
104	0xbe2b89fc	-0.16751856
105	0x3f4493cb	0.76788014
106	0x3e3c4a6d	0.18387766
107	0xbf4f2f40	-0.8093147
108	0xbed852c8	-0.42250657
109	0xbf82a519	-1.0206634
110	0x3d0d186f	0.03444713
111	0xbdb1c3c1	-0.08679915
112	0x3f3e2cf9	0.7428737
113	0x3db73128	0.08944923
114	0x3edf87b6	0.43658227
115	0xbe9cde3a	-0.30638295
116	0x3cca723a	0.02471267
117	0x3e91ead0	0.2849946
118	0xbecfb6d9	-0.4056919
119	0xbe6e0564	-0.23244244
120	0x3f52527e	0.82157123
121	0xbe96f825	-0.29486194
122	0xbe7cb2ec	-0.24677628
123	0xbe8d83e8	-0.276397
124	0xbe5de614	-0.21669799
125	0xbf00dc8b	-0.5033652
126	0x3f3e8e89	0.7443624
127	0xbf1ea2de	-0.61967266
128	0x3efbb980	0.49164963
129	0xbed0b1f9	-0.40760782
130	0x3ea210b6	0.31653374
131	0x3f5990d7	0.84986633
132	0xbf1b0604	-0.60556054
133	0x3f5050cd	0.8137329
134	0x3e9cd33d	0.30629912
135	0xbe8df157	-0.2772319
136	0xbf0ad623	-0.54232997
137	0xbf7b6ebe	-0.98215854
138	0xbf8ac9a5	-1.0842787
139	0x3ef046a2	0.4692889
140	0x3f0ae030	0.5424833
141	0x3e73964b	0.23787801
142	0xbf910ef1	-1.1332685
143	0x3ed86615	0.42265382
144	0xbd99cee2	-0.07510163
145	0x3f5b0ded	0.85568124
146	0x3db896f5	0.09013168
147	0xbd3d6a12	-0.046243735
148	0x3dbc1d55	0.09185282
149	0xbe8ed658	-0.27897906
150	0xbe190339	-0.14942636
151	0x3e464a98	0.19364393
152	0x3d8e8a03	0.069599174
153	0xbdb0fcb9	-0.08641953
154	0x3ed1fecd	0.4101471
155	0x3f666975	0.90004665
156	0xbc9b291d	-0.018940503
157	0xbf37e1f8	-0.71829176
158	0x3e608ae4	0.21927983
159	0x3e5ccebb	0.21563236
160	0xbfa5e4b4	-1.296042
161	0x3f111106	0.566666
162	0x3f55dfbe	0.8354453
163	0x3f189d0e	0.59614646
164	0xbfbc4c8b	-1.4710859
165	0x3f9fca05	1.2483526
166	0xbfc02f10	-1.5014362
167	0xbeb3fb35	-0.35152593
168	0xbebeb0fa	-0.37244397
169	0xbf2b0fd5	-0.6682103
170	0xbe8af15d	-0.2713727
171	0xbf551a32	-0.83243096
172	0xbd0b4593	-0.034001898
173	0x3ece5c9e	0.40305036
174	0x3f60adea	0.8776537
175	0xbf0ead28	-0.55732965
176	0xbf9cfe6b	-1.2265142
177	0xbe88a8a5	-0.26691166
178	0xbfba4bbf	-1.4554366
179	0x3f0a104b	0.5393111
180	0xbedfa8b3	-0.43683395
181	0x3f8cb795	1.0993525
182	0xbd1e1327	-0.038592484
183	0xbf176d43	-0.59151095
184	0xbf8101a1	-1.0078622
185	0xbf52d7b9	-0.82360417
186	0xbf49ce7e	-0.7883071
187	0x3d5d9202	0.054094322
188	0x3f9703da	1.179805
189	0x3f91eaad	1.1399742
190	0x3fe01e72	1.7509291
191	0xbe5f83d8	-0.21827638
192	0x3e943fdf	0.2895498
193	0x3edb3e0f	0.42820784
194	0x3f99bee5	1.2011381
195	0xbfaf4925	-1.3694197
196	0xbe8ae047	-0.27124235
197	0xbf0d9cc4	-0.5531733
198	0x3f509e26	0.81491315
199	0xbf45e8a8	-0.7730813
200	0x3e541b0c	0.20713443
201	0x3e255c4e	0.16148493
202	0x3f00ee8a	0.5036398
203	0xbeac3923	-0.33637342
204	0xbefd81f9	-0.49513224
205	0x3f3d5252	0.73953736
206	0x3f064dbf	0.5246238
207	0xbf51b400	-0.81915283
208	0x3f0956ba	0.5364796
209	0xbeaa6237	-0.33278057
210	0x3e2b2e23	0.16716819
211	0x3e1f3cf6	0.15550599
212	0xbf1f8ebd	-0.62327176
213	0x3ec64b27	0.38729212
214	0x3e64e723	0.22353797
215	0xbe92c54f	-0.2866616
216	0x3e917cc3	0.28415498
217	0x3f56a92e	0.838519
218	0x3f5a2f65	0.8522857
219	0x3e46c096	0.19409403
220	0xbeacf9ed	-0.33784428
221	0x3edc587b	0.43036255
222	0x3e9a0a0c	0.3008579
223	0xbf1151b2	-0.5676528
224	0x3f282565	0.6568206
225	0xbf19fc45	-0.6015056
226	0xbf497bf5	-0.7870477
227	0x3e8224ac	0.25418603
228	0x3f7f504b	0.9973189
229	0x3f347fa4	0.70507264
230	0xbdf2d2a5	-0.118565835
231	0xbe4c9108	-0.199772
232	0xbf0f2280	-0.5591202
233	0x3f936de3	1.151791
234	0x3dd5bae2	0.10436036
235	0xbf6dbc41	-0.9286538
236	0xbf558d0c	-0.83418345
237	0xbf539840	-0.8265419
238	0xbf2df383	-0.67949694
239	0x3ef5aad6	0.479819
240	0xbed6240d	-0.4182438
241	0xbeda21be	-0.42603868
242	0xbf252b4c	-0.6451919
243	0x3ea784c1	0.3271847
244	0xbe992611	-0.29911855
245	0xbd3a592d	-0.0454952
246	0x3f93b972	1.1540968
247	0xbf51163a	-0.8167454
248	0x3f6741d6	0.9033483
249	0xbd614cd1	-0.0550049
250	0xbf75d776	-0.9603189
251	0xbe8f7608	-0.28019738
252	0xbee49089	-0.44641522
253	0xbda4e9e7	-0.08052426
254	0x3e2074c5	0.15669544
255	0x3f533604	0.82504296

blocks.1.mlp.2.bias f4 [8]
0	0xbbc2ea81	-0.005948365
1	0xbe33d0d1	-0.17560126
2	0x3e1d0b66	0.1533638
3	0xbe9532a8	-0.2914021
4	0xbe7336d3	-0.23751383
5	0xbd90f66d	-0.07078252
6	0x3d1896ee	0.037253313
7	0x3e0fa0d7	0.140262

mlp.0.weight f4 [10, 8]
0	0xbf9bac64	-1.2161984
1	0x3ff9b0f3	1.9507126
2	0x3f7ca6de	0.9869212
3	0xbf65862f	-0.8965787
4	0xbdaa35e0	-0.08311057
5	0x3df27530	0.11838758
6	0x3e8cfb18	0.2753532
7	0x3efc020b	0.4922031
8	0x3d90b3e0	0.070655584
9	0x3f83df44	1.030251
10	0xbf1f5424	-0.62237763
11	0x3e8a4d47	0.27012083
12	0x3f329188	0.69753313
13	0x3e057a0f	0.13034843
14	0xbf54598a	-0.82949126
15	0x3f767fb4	0.9628861
16	0xbf8ee60a	-1.1163952
17	0xbecc69c3	-0.3992444
18	0xbf5f3ba3	-0.87200373
19	0xbee851a9	-0.45374802
20	0x3c2d2017	0.010566733
21	0x3f3b299a	0.73110354
22	0xbd941914	-0.07231346
23	0xbf7715c9	-0.96517617
24	0xbd54af86	-0.051925205
25	0x3edfe2ed	0.43727818
26	0xbec7a42e	-0.38992447
27	0x3e95213f	0.29126927
28	0x3c2d9aad	0.01059596
29	0x3d92065b	0.071301185
30	0x3e324678	0.17409694
31	0x3e1533c3	0.14570527
32	0x3f30886a	0.6895815
33	0xbf4c88a1	-0.7989598
34	0x3d65e1a7	0.056123402
35	0x3d86a19e	0.06573795
36	0x3f8fc206	1.1231086
37	0xbee64a25	-0.44978443
38	0xbf797787	-0.9744801
39	0xbe5a0516	-0.21291003
40	0x3f3e0894	0.7423184
41	0xbf0ed19a	-0.55788577
42	0x3f0f042c	0.5586574
43	0xbe4d5ae9	-0.2005421
44	0xbf8f0559	-1.1173507
45	0x3c80c34a	0.015718121
46	0x3e558c96	0.2085441
47	0x3efd10e7	0.49426958
48	0x3db8fba0	0.09032369
49	0x3cbca8fd	0.023029799
50	0x3f49cc84	0.7882769
51	0xbe022765	-0.1271034
52	0x3ee99919	0.45624617
53	0x3fba98a9	1.4577838
54	0xbee8ed99	-0.45493773
55	0x3ce34e76	0.027747374
56	0x3dac97a3	0.0842736
57	0x3e634b19	0.22196616
58	0xbf684b44	-0.90739846
59	0xbd308719	-0.04309759
60	0x3eb9b3c1	0.36269954
61	0xbeffb7c0	-0.49944878
62	0x3f45950b	0.77180547
63	0xbf8409bd	-1.0315472
64	0xbd958e82	-0.07302572
65	0x3cf8c845	0.030368933
66	0xbf35605f	-0.70850176
67	0x3f51e0f6	0.8198389
68	0xbee58918	-0.44831157
69	0x3f10f95a	0.5663048
70	0x3f505fd8	0.81396246
71	0x3f6cf9c9	0.9256864
72	0x3ddc8fa7	0.10769587
73	0xbef30617	-0.47465584
74	0x3e6ab479	0.22920407
75	0x3f2c9a6d	0.67423135
76	0xbe11a887	-0.14224444
77	0xbf9d273d	-1.22776
78	0xbe67dafc	-0.2264213
79	0xbe714afb	-0.23563759

mlp.0.bias f4 [10]
0	0xbe7cb61b	-0.24678843
1	0xbf2fcdb3	-0.6867325
2	0x3f4e84e2	0.80671513
3	0xbf195605	-0.5989688
4	0x3e0cba7d	0.13743015
5	0x3d128a29	0.03577629
6	0x3f1707d5	0.58996326
7	0xbeb49361	-0.3526869
8	0x3e5161bd	0.2044744
9	0x3d2ac818	0.04169473
